…
-540,"elapsed":339,"user":{"displayName":"YS YS","photoUrl":"https://lh3.googleusercontent.com/a-/AOh14GgOUuu8fLL2hz4JnGsBT2pxIvnZHyZkbgfU2U1zaVY=s64","userId":"10253263109621147001"}},"outputId":"523fe910-e3eb-4b07-958b-47f9c10bcfff"},"source":["model.summary()"],"execution_count":null,"outputs":[{"output_type":"stream","text":["Model: \"sequential_28\"\n","_________________________________________________________________\n","Layer (type)                 Output Shape              Param #   \n","=================================================================\n","conv2d_57 (Conv2D)           (None, 32, 32, 32)        896       \n","_________________________________________________________________\n","batch_normalization (BatchNo (None, 32, 32, 32)        128       \n","_________________________________________________________________\n","conv2d_58 (Conv2D)           (None, 32, 32, 32)        9248      \n","_________________________________________________________________\n","batch_normalization_1 (Batch (None, 32, 32, 32)        128       \n","_________________________________________________________________\n","max_pooling2d_30 (MaxPooling (None, 16, 16, 32)        0         \n","_________________________________________________________________\n","dropout_28 (Dropout)         (None, 16, 16, 32)        0         \n","_________________________________________________________________\n","conv2d_59 (Conv2D)           (None, 16, 16, 64)        18496     \n","_________________________________________________________________\n","batch_normalization_2 (Batch (None, 16, 16, 64)        256       \n","_________________________________________________________________\n","conv2d_60 (Conv2D)           (None, 16, 16, 64)        36928     \n","_________________________________________________________________\n","batch_normalization_3 (Batch (None, 16, 16, 64)        256       \n","_________________________________________________________________\n","max_pooling2d_31 (MaxPooling (None, 8, 8, 64)          0         \n","_________________________________________________________________\n","dropout_29 (Dropout)         (None, 8, 8, 64)          0         \n","_________________________________________________________________\n","conv2d_61 (Conv2D)           (None, 8, 8, 128)         73856     \n","_________________________________________________________________\n","batch_normalization_4 (Batch (None, 8, 8, 128)         512       \n","_________________________________________________________________\n","conv2d_62 (Conv2D)           (None, 8, 8, 128)         147584    \n","_________________________________________________________________\n","batch_normalization_5 (Batch (None, 8, 8, 128)         512       \n","_________________________________________________________________\n","max_pooling2d_32 (MaxPooling (None, 4, 4, 128)         0         \n","_________________________________________________________________\n","dropout_30 (Dropout)         (None, 4, 4, 128)         0         \n","_________________________________________________________________\n","flatten_21 (Flatten)         (None, 2048)              0         \n","_________________________________________________________________\n","dense_47 (Dense)             (None, 128)               262272    \n","_________________________________________________________________\n","batch_normalization_6 (Batch (None, 128)               512       \n","_________________________________________________________________\n","dropout_31 (Dropout)         (None, 128)               0         \n","_________________________________________________________________\n","dense_48 (Dense)             (None, 10)                1290      \n","=================================================================\n","Total params: 552,874\n","Trainable params: 551,722\n","Non-trainable params: 1,152\n","_________________________________________________________________\n"],"name":"stdout"}]},{"cell_type":"code","metadata":{"colab":{"base_uri":"https://localhost:8080/"},"id":"BiEygP8BjM8r","executionInfo":{"status":"ok","timestamp":
…
